tensorflow/test_model.tflite (tflite, 1872 bytes, 4 tensors)

sequential/dense/BiasAdd/ReadVariableOp/resource f4 [6]
0.13949174 -0.1646052 0.37329185 0.030744137 -0.017863277 -0.20861511
00000000: ecd6 0e3e 448e 28be 1c20 bf3e 21db fb3c
00000010: 0256 92bc 339f 55be

sequential/dense_1/BiasAdd/ReadVariableOp/resource f4 [12]
-0.090922825 0.12051192 0.06838862 0.08520619 -0.10746951 -0.25265312 0.15126914 -0.26302427
0.2287177 -0.07660711 0.41274127 -0.020628672
00000000: bf35 babd f4ce f63d 550f 8c3d 9580 ae3d
00000010: f918 dcbd c05b 81be 4ce6 1a3e 1eab 86be
00000020: f934 6a3e 30e4 9cbd d352 d33e 76fd a8bc

sequential/dense/MatMul f4 [6, 6]
0.6894773 0.050690528 -1.0333937 0.11257884 -0.5113632 0.27097332 -0.84065837 -0.07854232
-0.44383797 0.5804636 -0.26695675 -0.5457574 0.095121205 -0.614197 -0.4180877 -0.19263785
0.34401283 -0.48474106 -0.6736116 0.1721913 -0.1176298 -0.29234254 -0.640039 0.1422138
0.39201888 -0.47826016 -0.24504757 0.23258887 0.76548624 0.24760538 0.31774127 0.74860835
-0.27045718 0.078383096 -0.0826517 0.7312935
00000000: 9681 303f dfa0 4f3d 3f46 84bf bc8f e63d
00000010: b3e8 02bf 04bd 8a3e 6335 57bf ccda a0bd
00000020: bb3e e3be 4399 143f 8eae 88be c2b6 0bbf
00000030: e8ce c23d 043c 1dbf 970f d6be db42 45be
00000040: 7322 b03e fb2f f8be cf71 2cbf eb52 303e
00000050: e5e7 f0bd ecad 95be 99d9 23bf 7fa0 113e
00000060: b3b6 c83e 84de f4be c0ed 7abe c72b 6e3e
00000070: e8f6 433f 448c 7d3e fcae a23e cca4 3f3f
00000080: 5d79 8abe 5187 a03d 4b45 a9bd 0d36 3b3f

sequential/dense_1/MatMul f4 [12, 6]
0.39132163 -0.47430345 -0.16192552 -0.6819625 -0.25858456 -0.3649205 -0.0016164243 -0.34817857
-0.56500274 0.085167274 0.099522896 0.47604322 -0.46193582 -0.48202103 -0.44329524 -0.36321697
0.22257411 -0.12877133 -0.14244115 -0.554637 0.17189045 -0.1074515 0.3459583 -0.7963736
0.25059944 -0.18553276 0.3849305 -0.029622655 0.52977777 -0.4244235 0.6963975 0.13078275
-0.2215518 -0.14952892 -0.013456283 0.15456864 0.305383 0.2915083 -0.30070952 0.48429328
-0.47090772 0.07283985 -0.5874609 0.1897282 -0.3081764 0.121562086 -0.19829588 0.3066003
-0.55619574 0.0007947598 -0.29246664 -0.02232983 0.22280201 -0.621727 -0.21359007 0.48823956
0.021411825 -0.20189133 0.6155216 -0.8215547 0.30199558 0.24200997 0.6084342 0.4124925
-0.26995125 -0.36996725 -0.44498712 0.42452866 0.045870245 0.6272656 0.2227831 -0.1299773
00000000: 4f5b c83e e7d7 f2be cecf 25be 1895 2ebf
00000010: 3265 84be dcd6 babe 33de d3ba 7644 b2be
00000020: 05a4 10bf 2e6c ae3d a9d2 cb3d f0bb f33e
00000030: da82 ecbe 76cb f6be 98f7 e2be 93f7 b9be
00000040: 78ea 633e a2dc 03be 18dc 11be b1fc 0dbf
00000050: 0d04 303e 880f dcbd 7221 b13e 24df 4bbf
00000060: 924e 803e 4dfc 3dbe 9c15 c53e 36ab f2bc
00000070: 849f 073f 094e d9be 1b47 323f eaeb 053e
00000080: 7ade 62be 1c1e 19be be77 5cbc 3e47 1e3e
00000090: 295b 9c3e 9340 953e 99f6 99be 4af5 f73e
000000a0: d11a f1be 0f2d 953d d663 16bf 1c48 423e
000000b0: 4cc9 9dbe 8bf5 f83d 130e 4bbe b7fa 9c3e
000000c0: d862 0ebf 6d57 503a 30be 95be 0ced b6bc
000000d0: 3626 643e 8029 1fbf 5bb7 5abe 89fa f93e
000000e0: da67 af3c 9abc 4ebe d392 1d3f 6951 52bf
000000f0: 2a9f 9a3e 76d1 773e 58c2 1b3f 3832 d33e
00000100: 0d37 8abe 596c bdbe 5ad5 e3be d25b d93e
00000110: 70e2 3b3d 7a94 203f 4121 643e c518 05be
